model/model_quantized.tflite (tflite, 7104 bytes, 8 tensors)

sequential/conv2d/Conv2D/ReadVariableOp f4 [1, 4, 3, 8]
0.09473092 -0.09769065 0.033807 0.021509267 0.11118158 0.023491422 0.2968994 -0.017887972
-0.003028387 -0.20786715 -0.09473912 0.1313237 0.07710253 0.12928422 0.3250245 -0.15807466
-0.102843456 -0.20664194 -0.008247362 -0.23956239 -0.03451929 -0.475758 0.15091285 0.13786478
0.4986214 -0.11676484 -0.07011416 0.061007477 0.566082 0.084347785 -0.096250296 -0.062959425
0.044890836 -0.15534122 -0.332782 0.045741253 0.1871583 0.19426495 0.06929839 0.013578271
0.16400959 -0.21530044 -0.066397265 -0.063848935 -0.09956396 -0.1078643 -0.036781535 0.057581622
0.2617691 0.3022162 0.21540718 0.03918989 -0.27141935 0.18993437 -0.04104767 -0.03858258
-0.14127003 0.16830994 0.030342879 0.082169674 -0.025773227 -0.3274901 -0.37483484 0.050446898
-0.0034754872 0.25486246 -0.065481745 -0.11427559 0.19772197 0.009354 -0.11431044 -0.08366086
0.20529005 0.017542744 0.59268147 0.16600814 -0.3530656 -0.03807203 -0.1930647 0.016472088
0.15840586 0.18881331 0.19135459 -0.13201983 -0.27604732 -0.11329991 -0.11957738 -0.008201804
-0.18502684 0.12707877 0.25990966 0.0025753332 -0.07120388 0.19551985 -0.09459066 0.08307164
00000000: 4902 c23d 0912 c8bd 3579 0a3d 3434 b03c
00000010: 2bb3 e33d 1571 c03c 3303 983e cc89 92bc
00000020: e777 46bb 20db 54be 9506 c2bd b879 063e
00000030: eee7 9d3d 1563 043e 9c69 a63e 53de 21be
00000040: 979f d2bd f299 53be f21f 07bc d84f 75be
00000050: 1964 0dbd 8d96 f3be e688 1a3e 6d2c 0d3e
00000060: 4e4b ff3e 6822 efbd 0398 8fbd fae2 793d
00000070: c0ea 103f 88be ac3d e01e c5bd dff0 80bd
00000080: 74df 373d c511 1fbe 6762 aabe 2e5b 3b3d
00000090: 6da6 3f3e 64ed 463e 50ec 8d3d 6577 5e3c
000000a0: 21f2 273e b877 5cbe 4afb 87bd 3bc3 82bd
000000b0: 31e8 cbbd f5e7 dcbd 3ca8 16bd b5da 6b3d
000000c0: 9906 863e 15bc 9a3e b393 5c3e 9485 203d
000000d0: 7af7 8abe 287e 423e 9a21 28bd c408 1ebd
000000e0: 17a9 10be 7159 2c3e a191 f83c 9348 a83d
000000f0: 6022 d3bc c8ac a7be 5aea bfbe 68a1 4e3d
00000100: 00c5 63bb 557d 823e 4b1b 86bd 5209 eabd
00000110: a177 4a3e 8541 193c 981b eabd 6356 abbd
00000120: 8e37 523e cdb5 8f3c f9b9 173f 0afe 293e
00000130: 04c5 b4be 6bf1 1bbd c1b2 45be 79f0 863c
00000140: 2535 223e 4758 413e 75f2 433e 3530 07be
00000150: 1356 8dbe c909 e8bd fce4 f4bd dc60 06bc
00000160: ad77 3dbe f020 023e e112 853e ecc6 283b
00000170: 57d3 91bd 5b36 483e bfb8 c1bd 7721 aa3d

sequential/conv2d/Conv2D_bias f4 [8]
-1.1652795 -2.0827363 -1.0432787 -1.246449 -2.5987248 -1.8432298 -1.0078707 -1.9714289
00000000: e127 95bf 8d4b 05c0 288a 85bf a48b 9fbf
00000010: 8251 26c0 f4ee ebbf e801 81bf c857 fcbf

sequential/conv2d_1/Conv2D/ReadVariableOp f4 [16, 4, 1, 8]
-0.048026633 0.35879344 0.46526957 -0.26071668 0.2736452 -0.16904041 -0.121753514 -0.3590267
-0.059464633 0.040206462 -0.08911547 -0.14820889 0.03659696 -0.2140009 -0.02289968 -0.18624823
-0.036190357 -0.072465815 -0.07631045 0.03818967 0.020230088 0.014819103 0.15043977 -0.033557434
-0.052379422 -0.15294942 -0.14035645 0.017431315 -0.8874143 0.17157336 -0.21586171 -0.07660047
-0.052753285 -0.019039273 -0.039341677 0.014214454 -0.053395703 -0.4230898 -0.399396 0.0019498832
-0.100609906 0.3925439 -0.0077752634 0.024921188 0.24934623 -0.41038153 -0.18554896 -0.07171914
-0.06248611 -0.15171492 -0.12995681 0.0069947434 -0.052364778 -0.29725865 -0.4235615 0.060951427
-0.074639715 0.04473486 -0.06775568 0.009146106 0.06769163 -0.7229488 -0.18506655 0.37564453
-0.1961262 -0.16538766 -0.06437425 -0.15061857 -0.23075216 -0.18306333 -0.24362326 0.070325606
-0.2663376 -0.21574621 -0.15087458 0.24562609 0.11478697 -0.16311291 -0.0677404 0.2561089
-0.41729912 0.08694765 -0.18727687 -0.15032522 0.10961607 0.45433053 0.0692461 -0.084021024
-0.37755728 0.14932998 0.04011106 -0.25703448 0.17224136 -0.11268654 -0.15193686 0.0036818187
0.1004596 0.11395499 -0.33245704 0.1003968 -0.19468392 -0.13191545 -0.5578582 0.10399806
0.4555307 0.22522345 -0.32844588 0.0035716083 -0.027404064 -0.41865656 -0.29762998 -0.042257253
-0.07373573 -0.01932691 -0.48047492 -0.006271178 0.069263525 -0.32170928 0.113329515 0.012332116
-0.13444443 -0.010242986 -0.35307178 -0.12194609 0.26160625 -0.00012901443 0.1901383 0.03157893
0.2287103 0.24259922 -0.1122028 -0.34173152 0.54837835 -0.32641238 0.094098985 -0.3054567
-0.10694901 -0.43095374 -0.15442242 -0.16956426 -0.07233239 -0.0701478 0.23099366 -0.17687991
-0.3040997 0.1789857 -0.11521797 -0.06528002 -0.43210575 0.20131369 -0.14800116 -0.110888645
-0.07321615 0.19601986 0.014139705 0.033733584 -0.4662568 0.06206911 -0.31259 -0.13835163
-0.29075465 -0.005852255 -0.03178454 -0.2089911 -0.08047309 -0.12626141 -0.089317225 -0.09542102
-0.22657636 0.07379224 0.040878177 0.07308899 0.1410227 0.054357626 -0.034495518 0.25765675
-0.21341793 0.108174406 0.3660476 -0.06622649 0.27031174 0.05985374 -0.11996143 -0.065840065
-0.18890247 0.2562388 0.0024909377 -0.12622772 0.10148654 -0.12346138 -0.28550512 -0.07027077
0.14911415 -0.39175624 0.053174734 0.08156114 -0.38862556 0.21199836 -0.023836989 -0.038881443
0.10180405 -0.19505721 0.09445279 0.11108858 -0.14997222 -0.00020084831 -0.0014587917 -0.2265285
-0.119843476 -0.019435626 -0.18633802 -0.06634179 -0.14240436 0.22358875 -0.08175679 -0.31128156
-0.15309502 0.026249867 -0.0927325 -0.27088082 0.13061337 -0.24873333 -0.28110525 -0.57158333
-0.0891028 -0.09653315 -0.089357935 -0.13632683 -0.3614122 -0.16142692 -0.32841903 -0.19015975
-0.012814536 -0.24679372 -0.04357755 -0.09581873 -0.080970846 -0.13863982 -0.21021545 -0.24634391
-0.0036965786 -0.25710505 0.13545568 -0.059773687 0.21671551 -0.046984978 -0.006947986 -0.17573857
-0.09209088 0.012326045 -0.05752526 0.20838735 0.307148 0.28078744 0.4570469 0.053452477
00000000: 93b7 44bd c6b3 b73e d037 ee3e a87c 85be
00000010: 391b 8c3e ee18 2dbe e859 f9bd 59d2 b7be
00000020: 3091 73bd 88af 243d 2c82 b6bd 12c4 17be
00000030: b2e6 153d 0d23 5bbe 1c98 bbbc dbb7 3ebe
00000040: 573c 14bd f568 94bd a748 9cbd c56c 1c3d
00000050: 92b9 a53c d3cb 723c e20c 1a3e 8573 09bd
00000060: ce8b 56bd c69e 1cbe 9ab9 0fbe 1ecc 8e3c
00000070: 952d 63bf edb0 2f3e da0a 5dbe b5e0 9cbd
00000080: d413 58bd 40f8 9bbc bd24 21bd bee3 683c
00000090: 74b5 5abd 3a9f d8be a27d ccbe 3993 ff3a
000000a0: 910c cebd 84fb c83e a3c7 febb 8527 cc3c
000000b0: 9e54 7f3e 871d d2be 8c00 3ebe 7ce1 92bd
000000c0: 6ff1 7fbd 285b 1bbe 6613 05be 2934 e53b
000000d0: 737c 56bd 4932 98be 0edd d8be 34a8 793d
000000e0: b5dc 98bd e73b 373d 7dc3 8abd 8dd9 153c
000000f0: e9a1 8a3d 2c13 39bf 1682 3dbe 7b54 c03e
00000100: 4ed5 48be 625b 29be a6d6 83bd c13b 1abe
00000110: 4b4a 6cbe f474 3bbe 6078 79be df06 903d
00000120: 675d 88be 93ec 5cbe de7e 1abe 6885 7b3e
00000130: 6e15 eb3d 1207 27be 7bbb 8abd b520 833e
00000140: 3ba8 d5be 9c11 b23d 82c5 3fbe dbee 19be
00000150: 647e e03d 039e e83e e6d0 8d3d 3713 acbd
00000160: 304f c1be f5e9 183e 7f4b 243d 069a 83be
00000170: 0a60 303e 33c8 e6bd 5695 1bbe ab4a 713b
00000180: c3bd cd3d 3c61 e93d cf37 aabe d69c cd3d
00000190: 395b 47be d814 07be cccf 0ebf effc d43d
000001a0: 523b e93e faa0 663e 0f2a a8be a511 6a3b
000001b0: 7d7e e0bc 275a d6be f562 98be f115 2dbd
000001c0: c202 97bd 7853 9ebc cf00 f6be 747e cdbb
000001d0: 09da 8d3d 14b7 a4be 4e19 e83d a50c 4a3c
000001e0: cdab 09be 32d2 27bc d3c5 b4be dfbe f9bd
000001f0: 41f1 853e 0c48 07b9 9db3 423e e858 013d
00000200: 0833 6a3e ee6b 783e 95ca e5bd 6ff7 aebe
00000210: 8662 0c3f 861f a7be f8b6 c03d d264 9cbe
00000220: 1508 dbbd f8a5 dcbe e920 1ebe 41a2 2dbe
00000230: 0123 94bd a6a9 8fbd 9a89 6c3e 0220 35be
00000240: f5b2 9bbe 0748 373e 66f7 ebbd 88b1 85bd
00000250: f73c ddbe 2d25 4e3e 9e8d 17be 9619 e3bd
00000260: 59f2 95bd 6eb9 483e 39aa 673c 3a2c 0a3d
00000270: 36b9 eebe 2e3c 7e3d cc0b a0be 0dac 0dbe
00000280: cbdd 94be 46c4 bfbb 8130 02bd c301 56be
00000290: 13cf a4bd ac4a 01be f3eb b6bd 196c c3bd
000002a0: a203 68be 6320 973d e06f 273d aeaf 953d
000002b0: 4168 103e 1aa6 5e3d 2c4b 0dbd 96eb 833e
000002c0: 3b8a 5abe 8b8a dd3d 976a bb3e c1a1 87bd
000002d0: 4d66 8a3e 3229 753d 57ae f5bd 28d7 86bd
000002e0: a66f 41be bb31 833e 003f 233b d741 01be
000002f0: 2dd8 cf3d 52d9 fcbd ba2d 92be 1fea 8fbd
00000300: 61b1 183e 4694 c8be c0cd 593d 8709 a73d
00000310: eef9 c6be 1916 593e ca45 c3bc 2642 1fbd
00000320: a47e d03d 14bd 47be 7770 c13d 6982 e33d
00000330: 5192 19be cf9a 52b9 ed34 bfba 16f7 67be
00000340: 7f70 f5bd 7637 9fbc 65cf 3ebe 34de 87bd
00000350: 73d2 11be 73f4 643e 1b70 a7bd 4c60 9fbe
00000360: f1c4 1cbe f609 d73c 89ea bdbd e4b0 8abe
00000370: 83bf 053e f3b3 7ebe 07ed 8fbe 4953 12bf
00000380: 877b b6bd 2cb3 c5bd 4b01 b7bd 4399 0bbe
00000390: 050b b9be 194d 25be 8a26 a8be 3db9 42be
000003a0: 0ff4 51bc 7eb7 7cbe 607e 32bd 9c3c c4bd
000003b0: 0bd4 a5bd 99f7 0dbe b842 57be 9441 7cbe
000003c0: 4c42 72bb 46a3 83be e5b4 0a3e 41d5 74bd
000003d0: acea 5d3e 5273 40bd eeab e3bb d0f4 33be
000003e0: 259a bcbd 2ef3 493c 9b9f 6bbd 7e63 553e
000003f0: 8142 9d3e 5fc3 8f3e 0d02 ea3e fcf0 5a3d

sequential/conv2d_1/Conv2D_bias f4 [16]
-1.8475261 -0.021462137 0.0031880692 -0.23182699 -1.2142189 -1.0282087 0.6635467 1.8024887
-1.214107 -1.8712753 -0.52314764 -0.018294496 -1.6116068 0.0020893794 -0.022424517 3.6866221
00000000: bc7b ecbf 5dd1 afbc edee 503b 0e64 6dbe
00000010: 866b 9bbf 589c 83bf 32de 293f f3b7 e63f
00000020: dc67 9bbf f385 efbf 01ed 05bf 57de 95bc
00000030: 2249 cebf f8ed 083b 9fb3 b7bc 9ef1 6b40

sequential/dense/MatMul/ReadVariableOp/transpose i1 [16, 112] scale=0.009244202 zero_point=0
-0.036976807 -0.018488403 -0.16639563 0.120174624 0.13866302 0.17563984 -0.11093042 -0.018488403
-0.04622101 -0.036976807 -0.036976807 -0.14790723 -0.20337243 -0.26808184 -0.07395361 -0.120174624
-0.18488404 -0.36052388 -0.14790723 0.07395361 -0.120174624 -0.17563984 -0.20337243 0.009244202
-0.036976807 -0.018488403 -0.21261664 -0.11093042 -0.06470941 -0.36052388 -0.15715143 -0.17563984
-0.18488404 -0.120174624 -0.036976807 0.05546521 -0.20337243 -0.027732605 0.10168622 -0.13866302
0.15715143 -0.22186084 -0.16639563 -0.24034925 0.12941882 -0.38825646 0.04622101 0.12941882
0.10168622 -0.018488403 0.14790723 -0.15715143 0.018488403 -0.09244202 0.11093042 -0.14790723
0.027732605 -0.20337243 0.120174624 -0.08319782 0.07395361 -0.40674487 -0.21261664 -0.22186084
0.14790723 -0.30505866 -0.14790723 0.018488403 0.027732605 -0.009244202 -0.22186084 -0.10168622
0.0 0.04622101 -0.14790723 -0.120174624 -0.06470941 -0.23110504 0.036976807 0.027732605
-0.24034925 -0.24034925 -0.08319782 -0.20337243 -0.036976807 -0.11093042 0.08319782 0.07395361
-0.18488404 0.120174624 -0.23110504 0.09244202 -0.12941882 -0.29581445 -0.16639563 -0.09244202
-0.04622101 -0.12941882 -0.11093042 0.027732605 -0.18488404 -0.11093042 -0.26808184 0.11093042
0.04622101 -0.13866302 -0.22186084 -0.120174624 -0.36052388 -0.36052388 -0.16639563 0.05546521
0.20337243 -0.30505866 0.09244202 -0.09244202 0.05546521 0.08319782 -0.06470941 0.07395361
0.08319782 0.12941882 -0.018488403 -0.018488403 0.08319782 0.0 -0.120174624 0.14790723
0.12941882 -0.24034925 -0.38825646 0.009244202 0.24959345 -0.26808184 -0.24034925 0.04622101
0.036976807 0.19412823 -0.018488403 -0.07395361 0.09244202 -0.009244202 -0.27732605 0.25883764
-0.009244202 -0.41598907 -0.120174624 0.120174624 -0.17563984 -0.31430286 -0.13866302 0.009244202
-0.06470941 -0.027732605 0.0 -0.17563984 0.09244202 -0.027732605 -0.34203547 0.24959345
-0.18488404 -0.4529659 -0.08319782 -0.35127968 -0.11093042 -0.20337243 -0.36052388 0.14790723
-0.14790723 -0.08319782 -0.036976807 -0.16639563 0.04622101 -0.04622101 -0.37901226 0.19412823
-0.018488403 -0.11093042 -0.11093042 -0.09244202 -0.23110504 -0.09244202 -0.39750066 0.24034925
0.11093042 0.26808184 -0.120174624 -0.13866302 0.009244202 0.036976807 -0.04622101 0.15715143
0.12941882 -0.21261664 0.027732605 0.0 0.24034925 -0.04622101 -0.42523327 0.120174624
0.24034925 0.23110504 0.027732605 -0.07395361 0.027732605 0.05546521 0.05546521 0.09244202
0.036976807 0.20337243 0.009244202 0.009244202 0.027732605 0.018488403 -0.05546521 0.11093042
0.09244202 0.12941882 0.04622101 -0.05546521 0.018488403 0.009244202 0.09244202 0.08319782
-0.018488403 0.018488403 0.05546521 -0.64709413 -0.13866302 0.18488404 -0.14790723 0.05546521
-0.120174624 -0.17563984 -0.24959345 -0.23110504 0.120174624 -0.027732605 -0.09244202 0.26808184
-0.07395361 0.04622101 -0.15715143 -0.26808184 -0.05546521 -0.22186084 -0.16639563 0.26808184
-0.04622101 0.20337243 -0.26808184 -0.22186084 0.08319782 0.018488403 0.0 0.38825646
00000000: fcfe ee0d 0f13 f4fe fbfc fcf0 eae3 f8f3
00000010: ecd9 f008 f3ed ea01 fcfe e9f4 f9d9 efed
00000020: ecf3 fc06 eafd 0bf1 11e8 eee6 0ed6 050e
00000030: 0bfe 10ef 02f6 0cf0 03ea 0df7 08d4 e9e8
00000040: 10df f002 03ff e8f5 0005 f0f3 f9e7 0403
00000050: e6e6 f7ea fcf4 0908 ec0d e70a f2e0 eef6
00000060: fbf2 f403 ecf4 e30c 05f1 e8f3 d9d9 ee06
00000070: 16df 0af6 0609 f908 090e fefe 0900 f310
00000080: 0ee6 d601 1be3 e605 0415 fef8 0aff e21c
00000090: ffd3 f30d edde f101 f9fd 00ed 0afd db1b
000000a0: eccf f7da f4ea d910 f0f7 fcee 05fb d715
000000b0: fef4 f4f6 e7f6 d51a 0c1d f3f1 0104 fb11
000000c0: 0ee9 0300 1afb d20d 1a19 03f8 0306 060a
000000d0: 0416 0101 0302 fa0c 0a0e 05fa 0201 0a09
000000e0: fe02 06ba f114 f006 f3ed e5e7 0dfd f61d
000000f0: f805 efe3 fae8 ee1d fb16 e3e8 0902 002a

sequential/dense/MatMul_bias f4 [16]
-0.25220317 -0.73692447 0.29026043 -0.0007127827 0.44257697 0.18534945 2.4058542 -0.60345906
2.2303398 -1.0402315 -0.89996684 0.6573884 1.3558551 -0.93679935 2.1350372 -0.40499976
00000000: c620 81be 15a7 3cbf 049d 943e 0ada 3aba
00000010: 7399 e23e 3fcc 3d3e 84f9 1940 4b7c 1abf
00000020: e3bd 0e40 4e26 85bf 3a64 66bf 9b4a 283f
00000030: a98c ad3f 15d2 6fbf 73a4 0840 215c cfbe

sequential/dense_1/MatMul/ReadVariableOp/transpose f4 [4, 16]
-0.4345046 0.101315 0.19445047 -0.09910232 0.28746605 -0.09175431 0.18973514 -0.4773233
0.30799565 -0.33992127 0.13569732 0.2946998 0.32062602 0.37339193 0.161126 -0.5269325
0.050939705 0.11101559 0.13872926 -0.15664095 0.30655643 -0.03657678 0.13413131 0.25289294
0.3109958 0.040813148 0.14922176 -0.1051593 0.25016126 0.41732484 0.20583215 0.14946316
0.16330555 -0.095315345 0.07515568 -0.097801104 -0.3036195 -0.06121471 -0.10497497 0.16949953
0.14166248 0.26076314 0.171194 -0.34525272 0.20794421 0.28880858 0.060935855 0.029651769
0.20081805 0.020929078 0.15587634 0.022903545 -0.23561162 0.00011161972 0.1759737 0.0372818
0.3347782 -0.15157999 0.08615387 -0.21093374 0.27517873 0.33247134 0.18335725 -0.1587592
00000000: 6377 debe 3d7e cf3d 061e 473e 28f6 cabd
00000010: c02e 933e afe9 bbbd ee49 423e b863 f4be
00000020: 9bb1 9d3e 290a aebe 3df4 0a3e e4e2 963e
00000030: 1829 a43e 3a2d bf3e 37fe 243e 0ce5 06bf
00000040: 27a6 503d 245c e33d 0b0f 0e3e 7c66 20be
00000050: f7f4 9c3e 89d1 15bd b859 093e 2f7b 813e
00000060: d73a 9f3e b02b 273d 97cd 183e c25d d7bd
00000070: 2315 803e 9aab d53e aac5 523e df0c 193e
00000080: 9239 273e b134 c3bd 39eb 993d f24b c8bd
00000090: 0474 9bbe 47bc 7abd 1efd d6bd 4991 2d3e
000000a0: f80f 113e bf82 853e 7b4d 2f3e f7c4 b0be
000000b0: 54ef 543e b8de 933e e097 793d 44e8 f23c
000000c0: 3fa3 4d3e 7573 ab3c 0c9e 1f3e 37a0 bb3c
000000d0: 2c44 71be 6215 ea38 7332 343e cdb4 183d
000000e0: 0c68 ab3e c937 1bbe 7171 b03d 04ff 57be
000000f0: 3ae4 8c3e af39 aa3e 01c2 3b3e c691 22be

sequential/dense_1/MatMul_bias f4 [4]
-3.9409747 -4.8867908 2.0527194 0.9403849
00000000: ee38 7cc0 9760 9cc0 c15f 0340 11bd 703f
