model/model.tflite (tflite, 12448 bytes, 8 tensors)

sequential/conv2d/Conv2D/ReadVariableOp f4 [1, 4, 3, 8]
0.09473092 -0.09769065 0.033807 0.021509267 0.11118158 0.023491422 0.2968994 -0.017887972
-0.003028387 -0.20786715 -0.09473912 0.1313237 0.07710253 0.12928422 0.3250245 -0.15807466
-0.102843456 -0.20664194 -0.008247362 -0.23956239 -0.03451929 -0.475758 0.15091285 0.13786478
0.4986214 -0.11676484 -0.07011416 0.061007477 0.566082 0.084347785 -0.096250296 -0.062959425
0.044890836 -0.15534122 -0.332782 0.045741253 0.1871583 0.19426495 0.06929839 0.013578271
0.16400959 -0.21530044 -0.066397265 -0.063848935 -0.09956396 -0.1078643 -0.036781535 0.057581622
0.2617691 0.3022162 0.21540718 0.03918989 -0.27141935 0.18993437 -0.04104767 -0.03858258
-0.14127003 0.16830994 0.030342879 0.082169674 -0.025773227 -0.3274901 -0.37483484 0.050446898
-0.0034754872 0.25486246 -0.065481745 -0.11427559 0.19772197 0.009354 -0.11431044 -0.08366086
0.20529005 0.017542744 0.59268147 0.16600814 -0.3530656 -0.03807203 -0.1930647 0.016472088
0.15840586 0.18881331 0.19135459 -0.13201983 -0.27604732 -0.11329991 -0.11957738 -0.008201804
-0.18502684 0.12707877 0.25990966 0.0025753332 -0.07120388 0.19551985 -0.09459066 0.08307164
00000000: 4902 c23d 0912 c8bd 3579 0a3d 3434 b03c
00000010: 2bb3 e33d 1571 c03c 3303 983e cc89 92bc
00000020: e777 46bb 20db 54be 9506 c2bd b879 063e
00000030: eee7 9d3d 1563 043e 9c69 a63e 53de 21be
00000040: 979f d2bd f299 53be f21f 07bc d84f 75be
00000050: 1964 0dbd 8d96 f3be e688 1a3e 6d2c 0d3e
00000060: 4e4b ff3e 6822 efbd 0398 8fbd fae2 793d
00000070: c0ea 103f 88be ac3d e01e c5bd dff0 80bd
00000080: 74df 373d c511 1fbe 6762 aabe 2e5b 3b3d
00000090: 6da6 3f3e 64ed 463e 50ec 8d3d 6577 5e3c
000000a0: 21f2 273e b877 5cbe 4afb 87bd 3bc3 82bd
000000b0: 31e8 cbbd f5e7 dcbd 3ca8 16bd b5da 6b3d
000000c0: 9906 863e 15bc 9a3e b393 5c3e 9485 203d
000000d0: 7af7 8abe 287e 423e 9a21 28bd c408 1ebd
000000e0: 17a9 10be 7159 2c3e a191 f83c 9348 a83d
000000f0: 6022 d3bc c8ac a7be 5aea bfbe 68a1 4e3d
00000100: 00c5 63bb 557d 823e 4b1b 86bd 5209 eabd
00000110: a177 4a3e 8541 193c 981b eabd 6356 abbd
00000120: 8e37 523e cdb5 8f3c f9b9 173f 0afe 293e
00000130: 04c5 b4be 6bf1 1bbd c1b2 45be 79f0 863c
00000140: 2535 223e 4758 413e 75f2 433e 3530 07be
00000150: 1356 8dbe c909 e8bd fce4 f4bd dc60 06bc
00000160: ad77 3dbe f020 023e e112 853e ecc6 283b
00000170: 57d3 91bd 5b36 483e bfb8 c1bd 7721 aa3d

sequential/conv2d/Conv2D_bias f4 [8]
-1.1652795 -2.0827363 -1.0432787 -1.246449 -2.5987248 -1.8432298 -1.0078707 -1.9714289
00000000: e127 95bf 8d4b 05c0 288a 85bf a48b 9fbf
00000010: 8251 26c0 f4ee ebbf e801 81bf c857 fcbf

sequential/conv2d_1/Conv2D/ReadVariableOp f4 [16, 4, 1, 8]
-0.048026633 0.35879344 0.46526957 -0.26071668 0.2736452 -0.16904041 -0.121753514 -0.3590267
-0.059464633 0.040206462 -0.08911547 -0.14820889 0.03659696 -0.2140009 -0.02289968 -0.18624823
-0.036190357 -0.072465815 -0.07631045 0.03818967 0.020230088 0.014819103 0.15043977 -0.033557434
-0.052379422 -0.15294942 -0.14035645 0.017431315 -0.8874143 0.17157336 -0.21586171 -0.07660047
-0.052753285 -0.019039273 -0.039341677 0.014214454 -0.053395703 -0.4230898 -0.399396 0.0019498832
-0.100609906 0.3925439 -0.0077752634 0.024921188 0.24934623 -0.41038153 -0.18554896 -0.07171914
-0.06248611 -0.15171492 -0.12995681 0.0069947434 -0.052364778 -0.29725865 -0.4235615 0.060951427
-0.074639715 0.04473486 -0.06775568 0.009146106 0.06769163 -0.7229488 -0.18506655 0.37564453
-0.1961262 -0.16538766 -0.06437425 -0.15061857 -0.23075216 -0.18306333 -0.24362326 0.070325606
-0.2663376 -0.21574621 -0.15087458 0.24562609 0.11478697 -0.16311291 -0.0677404 0.2561089
-0.41729912 0.08694765 -0.18727687 -0.15032522 0.10961607 0.45433053 0.0692461 -0.084021024
-0.37755728 0.14932998 0.04011106 -0.25703448 0.17224136 -0.11268654 -0.15193686 0.0036818187
0.1004596 0.11395499 -0.33245704 0.1003968 -0.19468392 -0.13191545 -0.5578582 0.10399806
0.4555307 0.22522345 -0.32844588 0.0035716083 -0.027404064 -0.41865656 -0.29762998 -0.042257253
-0.07373573 -0.01932691 -0.48047492 -0.006271178 0.069263525 -0.32170928 0.113329515 0.012332116
-0.13444443 -0.010242986 -0.35307178 -0.12194609 0.26160625 -0.00012901443 0.1901383 0.03157893
0.2287103 0.24259922 -0.1122028 -0.34173152 0.54837835 -0.32641238 0.094098985 -0.3054567
-0.10694901 -0.43095374 -0.15442242 -0.16956426 -0.07233239 -0.0701478 0.23099366 -0.17687991
-0.3040997 0.1789857 -0.11521797 -0.06528002 -0.43210575 0.20131369 -0.14800116 -0.110888645
-0.07321615 0.19601986 0.014139705 0.033733584 -0.4662568 0.06206911 -0.31259 -0.13835163
-0.29075465 -0.005852255 -0.03178454 -0.2089911 -0.08047309 -0.12626141 -0.089317225 -0.09542102
-0.22657636 0.07379224 0.040878177 0.07308899 0.1410227 0.054357626 -0.034495518 0.25765675
-0.21341793 0.108174406 0.3660476 -0.06622649 0.27031174 0.05985374 -0.11996143 -0.065840065
-0.18890247 0.2562388 0.0024909377 -0.12622772 0.10148654 -0.12346138 -0.28550512 -0.07027077
0.14911415 -0.39175624 0.053174734 0.08156114 -0.38862556 0.21199836 -0.023836989 -0.038881443
0.10180405 -0.19505721 0.09445279 0.11108858 -0.14997222 -0.00020084831 -0.0014587917 -0.2265285
-0.119843476 -0.019435626 -0.18633802 -0.06634179 -0.14240436 0.22358875 -0.08175679 -0.31128156
-0.15309502 0.026249867 -0.0927325 -0.27088082 0.13061337 -0.24873333 -0.28110525 -0.57158333
-0.0891028 -0.09653315 -0.089357935 -0.13632683 -0.3614122 -0.16142692 -0.32841903 -0.19015975
-0.012814536 -0.24679372 -0.04357755 -0.09581873 -0.080970846 -0.13863982 -0.21021545 -0.24634391
-0.0036965786 -0.25710505 0.13545568 -0.059773687 0.21671551 -0.046984978 -0.006947986 -0.17573857
-0.09209088 0.012326045 -0.05752526 0.20838735 0.307148 0.28078744 0.4570469 0.053452477
00000000: 93b7 44bd c6b3 b73e d037 ee3e a87c 85be
00000010: 391b 8c3e ee18 2dbe e859 f9bd 59d2 b7be
00000020: 3091 73bd 88af 243d 2c82 b6bd 12c4 17be
00000030: b2e6 153d 0d23 5bbe 1c98 bbbc dbb7 3ebe
00000040: 573c 14bd f568 94bd a748 9cbd c56c 1c3d
00000050: 92b9 a53c d3cb 723c e20c 1a3e 8573 09bd
00000060: ce8b 56bd c69e 1cbe 9ab9 0fbe 1ecc 8e3c
00000070: 952d 63bf edb0 2f3e da0a 5dbe b5e0 9cbd
00000080: d413 58bd 40f8 9bbc bd24 21bd bee3 683c
00000090: 74b5 5abd 3a9f d8be a27d ccbe 3993 ff3a
000000a0: 910c cebd 84fb c83e a3c7 febb 8527 cc3c
000000b0: 9e54 7f3e 871d d2be 8c00 3ebe 7ce1 92bd
000000c0: 6ff1 7fbd 285b 1bbe 6613 05be 2934 e53b
000000d0: 737c 56bd 4932 98be 0edd d8be 34a8 793d
000000e0: b5dc 98bd e73b 373d 7dc3 8abd 8dd9 153c
000000f0: e9a1 8a3d 2c13 39bf 1682 3dbe 7b54 c03e
00000100: 4ed5 48be 625b 29be a6d6 83bd c13b 1abe
00000110: 4b4a 6cbe f474 3bbe 6078 79be df06 903d
00000120: 675d 88be 93ec 5cbe de7e 1abe 6885 7b3e
00000130: 6e15 eb3d 1207 27be 7bbb 8abd b520 833e
00000140: 3ba8 d5be 9c11 b23d 82c5 3fbe dbee 19be
00000150: 647e e03d 039e e83e e6d0 8d3d 3713 acbd
00000160: 304f c1be f5e9 183e 7f4b 243d 069a 83be
00000170: 0a60 303e 33c8 e6bd 5695 1bbe ab4a 713b
00000180: c3bd cd3d 3c61 e93d cf37 aabe d69c cd3d
00000190: 395b 47be d814 07be cccf 0ebf effc d43d
000001a0: 523b e93e faa0 663e 0f2a a8be a511 6a3b
000001b0: 7d7e e0bc 275a d6be f562 98be f115 2dbd
000001c0: c202 97bd 7853 9ebc cf00 f6be 747e cdbb
000001d0: 09da 8d3d 14b7 a4be 4e19 e83d a50c 4a3c
000001e0: cdab 09be 32d2 27bc d3c5 b4be dfbe f9bd
000001f0: 41f1 853e 0c48 07b9 9db3 423e e858 013d
00000200: 0833 6a3e ee6b 783e 95ca e5bd 6ff7 aebe
00000210: 8662 0c3f 861f a7be f8b6 c03d d264 9cbe
00000220: 1508 dbbd f8a5 dcbe e920 1ebe 41a2 2dbe
00000230: 0123 94bd a6a9 8fbd 9a89 6c3e 0220 35be
00000240: f5b2 9bbe 0748 373e 66f7 ebbd 88b1 85bd
00000250: f73c ddbe 2d25 4e3e 9e8d 17be 9619 e3bd
00000260: 59f2 95bd 6eb9 483e 39aa 673c 3a2c 0a3d
00000270: 36b9 eebe 2e3c 7e3d cc0b a0be 0dac 0dbe
00000280: cbdd 94be 46c4 bfbb 8130 02bd c301 56be
00000290: 13cf a4bd ac4a 01be f3eb b6bd 196c c3bd
000002a0: a203 68be 6320 973d e06f 273d aeaf 953d
000002b0: 4168 103e 1aa6 5e3d 2c4b 0dbd 96eb 833e
000002c0: 3b8a 5abe 8b8a dd3d 976a bb3e c1a1 87bd
000002d0: 4d66 8a3e 3229 753d 57ae f5bd 28d7 86bd
000002e0: a66f 41be bb31 833e 003f 233b d741 01be
000002f0: 2dd8 cf3d 52d9 fcbd ba2d 92be 1fea 8fbd
00000300: 61b1 183e 4694 c8be c0cd 593d 8709 a73d
00000310: eef9 c6be 1916 593e ca45 c3bc 2642 1fbd
00000320: a47e d03d 14bd 47be 7770 c13d 6982 e33d
00000330: 5192 19be cf9a 52b9 ed34 bfba 16f7 67be
00000340: 7f70 f5bd 7637 9fbc 65cf 3ebe 34de 87bd
00000350: 73d2 11be 73f4 643e 1b70 a7bd 4c60 9fbe
00000360: f1c4 1cbe f609 d73c 89ea bdbd e4b0 8abe
00000370: 83bf 053e f3b3 7ebe 07ed 8fbe 4953 12bf
00000380: 877b b6bd 2cb3 c5bd 4b01 b7bd 4399 0bbe
00000390: 050b b9be 194d 25be 8a26 a8be 3db9 42be
000003a0: 0ff4 51bc 7eb7 7cbe 607e 32bd 9c3c c4bd
000003b0: 0bd4 a5bd 99f7 0dbe b842 57be 9441 7cbe
000003c0: 4c42 72bb 46a3 83be e5b4 0a3e 41d5 74bd
000003d0: acea 5d3e 5273 40bd eeab e3bb d0f4 33be
000003e0: 259a bcbd 2ef3 493c 9b9f 6bbd 7e63 553e
000003f0: 8142 9d3e 5fc3 8f3e 0d02 ea3e fcf0 5a3d

sequential/conv2d_1/Conv2D_bias f4 [16]
-1.8475261 -0.021462137 0.0031880692 -0.23182699 -1.2142189 -1.0282087 0.6635467 1.8024887
-1.214107 -1.8712753 -0.52314764 -0.018294496 -1.6116068 0.0020893794 -0.022424517 3.6866221
00000000: bc7b ecbf 5dd1 afbc edee 503b 0e64 6dbe
00000010: 866b 9bbf 589c 83bf 32de 293f f3b7 e63f
00000020: dc67 9bbf f385 efbf 01ed 05bf 57de 95bc
00000030: 2249 cebf f8ed 083b 9fb3 b7bc 9ef1 6b40

sequential/dense/MatMul/ReadVariableOp/transpose f4 [16, 112]
-0.032565173 -0.01921831 -0.16355336 0.118421614 0.13667026 0.17877603 -0.11439461 -0.022522
-0.045270145 -0.037512608 -0.032976247 -0.14394721 -0.20437832 -0.26457566 -0.06985206 -0.12028787
-0.18070807 -0.36347556 -0.14491197 0.07802244 -0.1186564 -0.17920853 -0.2019402 0.011565837
-0.039725397 -0.014637464 -0.20881099 -0.11095369 -0.067580566 -0.36491898 -0.15357205 -0.17625129
-0.18504189 -0.124159485 -0.037891507 0.05697102 -0.20072252 -0.026739974 0.1015878 -0.14158547
0.15757193 -0.22383857 -0.16639617 -0.24278976 0.13081223 -0.38466552 0.04598267 0.12712799
0.10230163 -0.014609278 0.1447268 -0.15555125 0.02302643 -0.091994874 0.1119561 -0.1482652
0.024699714 -0.20357488 0.11590264 -0.082407445 0.07043343 -0.40244338 -0.21484949 -0.22516425
0.145846 -0.30374935 -0.14491032 0.019555274 0.030489909 -0.010222071 -0.21987249 -0.098406345
-0.0022298961 0.04725639 -0.14716746 -0.1194097 -0.060886625 -0.2277834 0.035714146 0.027271558
-0.24140865 -0.23695405 -0.07982475 -0.20574258 -0.03596026 -0.1093876 0.085425295 0.07088166
-0.18460126 0.12297238 -0.23194817 0.0914127 -0.12785387 -0.29847232 -0.16974716 -0.095820725
-0.05073979 -0.13109633 -0.107227765 0.023890946 -0.18771608 -0.10854046 -0.2639049 0.114030406
0.04748234 -0.13748345 -0.21789344 -0.11997896 -0.3618527 -0.3619302 -0.16250229 0.054984283
0.2076761 -0.30244803 0.09251514 -0.094131514 0.05506057 0.07929985 -0.062095694 0.076312214
0.08167018 0.12982021 -0.014598621 -0.01970251 0.08528132 0.0007362725 -0.12194567 0.14572345
0.12698941 -0.23915403 -0.39059097 0.012899601 0.25086346 -0.26735777 -0.23782927 0.050205365
0.033079147 0.18982254 -0.022027837 -0.07328978 0.094335735 -0.012664529 -0.27599403 0.25932598
-0.010226456 -0.41642138 -0.11869275 0.12298974 -0.17806311 -0.31857458 -0.13946432 0.009939765
-0.06429994 -0.025595084 -0.0032059774 -0.17288063 0.09535606 -0.02776432 -0.33856693 0.24666667
-0.18932535 -0.45084837 -0.07976071 -0.35397387 -0.11514949 -0.20637175 -0.35992536 0.14389771
-0.14856966 -0.08618423 -0.038876798 -0.16284859 0.046262298 -0.0420199 -0.37727985 0.19702601
-0.016570877 -0.114476115 -0.10977075 -0.09637478 -0.23448941 -0.093325675 -0.39662793 0.24112274
0.11044811 0.26617256 -0.12176367 -0.14106093 0.010436593 0.034214776 -0.0484058 0.15899873
0.13001235 -0.21119545 0.02701551 -0.0043033627 0.23922205 -0.0425465 -0.42631543 0.11726672
0.24076621 0.22732939 0.02955303 -0.07301555 0.031670216 0.060032472 0.056410275 0.095208175
0.032421954 0.20745677 0.0119898515 0.010509449 0.03107214 0.02075178 -0.055818405 0.11030176
0.09475293 0.12723365 0.046260305 -0.05442281 0.014814274 0.0075211767 0.091997944 0.07917058
-0.018603502 0.017454047 0.055207957 -0.6512314 -0.1379235 0.18926471 -0.1505219 0.05149924
-0.11977711 -0.174402 -0.24839255 -0.2314538 0.12029423 -0.026825866 -0.08817843 0.27105242
-0.06983954 0.050507728 -0.15725033 -0.26702166 -0.058278166 -0.22164372 -0.16572498 0.27146122
-0.04802126 0.20693171 -0.26591074 -0.21912299 0.08576927 0.015840953 -0.00085738866 0.38737726
00000000: 0f63 05bd b86f 9dbc 887a 27be 0887 f23d
00000010: 4af3 0b3e 1011 373e b947 eabd 0f80 b8bc
00000020: 306d 39bd d2a6 19bd 1a12 07bd e666 13be
00000030: 8d48 51be 7676 87be 990e 8fbd 7d59 f6bd
00000040: 890b 39be 7819 babe ce63 14be 3bca 9f3d
00000050: 2002 f3bd 7182 37be 69c9 4ebe a37e 3d3c
00000060: 19b7 22bd f9d1 6fbc 8cd2 55be b03b e3bd
00000070: ae67 8abd a9d6 babe fe41 1dbe 387b 34be
00000080: 9f7b 3dbe 5447 febd 2034 1bbd 725a 693d
00000090: 348a 4dbe ca0d dbbc 440d d03d c8fb 10be
000000a0: 895a 213e f035 65be c263 2abe e19d 78be
000000b0: a4f3 053e e1f2 c4be 5358 3c3d d72d 023e
000000c0: 8483 d13d c15b 6fbc 4333 143e d448 1fbe
000000d0: eca1 bc3c cf67 bcbd 3d49 e53d d5d2 17be
000000e0: 0e57 ca3c ef75 50be 5d5e ed3d 3cc5 a8bd
000000f0: 673f 903d 0f0d cebe 8101 5cbe 7591 66be
00000100: a758 153e 0985 9bbe 5f63 14be 6232 a03c
00000110: f9c5 f93c 797a 27bc 4126 61be 4489 c9bd
00000120: 7323 12bb eb8f 413d 11b3 16be 138d f4bd
00000130: 4164 79bd 0d40 69be ff48 123d 9a68 df3c
00000140: d433 77be 15a4 72be 297b a3bd 2fae 52be
00000150: 114b 13bd 9b06 e0bd 75f3 ae3d 672a 913d
00000160: 1d08 3dbe f1d8 fb3d d283 6dbe 9536 bb3d
00000170: 20ec 02be 5dd1 98be 33d2 2dbe a83d c4bd
00000180: 87d4 4fbd 1e3e 06be 3b9a dbbd f2b6 c33c
00000190: a538 40be 764a debd 8b1e 87be c688 e93d
000001a0: d87c 423d 76c8 0cbe 751f 5fbe 87b7 f5bd
000001b0: c244 b9be ea4e b9be 0067 26be 3337 613d
000001c0: 0ba9 543e 78da 9abe 9478 bd3d 06c8 c0bd
000001d0: 3187 613d f667 a23d 0e58 7ebd 9449 9c3d
000001e0: b242 a73d 97ef 043e 0e2f 6fbc 2967 a1bc
000001f0: f9a7 ae3d 6902 413a a7be f9bd 8738 153e
00000200: 8309 023e cbe4 74be 8afb c7be d958 533c
00000210: 2d71 803e 1ee3 88be 8489 73be 24a4 4d3d
00000220: 007e 073d d760 423e b973 b4bc f418 96bd
00000230: 1833 c13d e27e 4fbc 174f 8dbe 60c6 843e
00000240: de8c 27bc 2f35 d5be 2f15 f3bd 0be2 fb3d
00000250: 2d56 36be 351c a3be bccf 0ebe 65da 223c
00000260: b0af 83bd c8ac d1bc 601b 52bb 9f07 31be
00000270: 0a4a c33d 0072 e3bc a558 adbe 3096 7c3e
00000280: 81de 41be 99d5 e6be 9559 a3bd 103c b5be
00000290: 7fd3 ebbd 1e53 53be 2348 b8be ec59 133e
000002a0: a522 18be 5c81 b0bd 473d 1fbd c8c1 26be
000002b0: 897d 3d3d 0f1d 2cbd d32a c1be 30c1 493e
000002c0: a6bf 87bc 7472 eabd 7dcf e0bd 2460 c5bd
000002d0: fe1d 70be 8821 bfbd d112 cbbe e1e8 763e
000002e0: 9e32 e23d c547 883e 3b5f f9bd 4772 10be
000002f0: 3efe 2a3c cb24 0c3d 2945 46bd 90d0 223e
00000300: f521 053e 9f43 58be a14f dd3c 3903 8dbb
00000310: a0f6 743e 3d45 2ebd 0446 dabe 8929 f03d
00000320: 6b8b 763e 09c9 683e 3219 f23c 2d89 95bd
00000330: a1b8 013d 9ce4 753d 760e 673d 81fc c23d
00000340: e2cc 043d 8c6f 543e 1571 443c d32f 2c3c
00000350: 008b fe3c a3ff a93c d7a1 64bd e4e5 e13d
00000360: d30d c23d 8a49 023e 727b 3d3d 74ea 5ebd
00000370: 92b7 723c 3474 f63b 6b69 bc3d 2f24 a23d
00000380: 5f66 98bc cafb 8e3c bd21 623d 1ab7 26bf
00000390: d13b 0dbe 9cce 413e 6a22 1abe def0 523d
000003a0: b44d f5bd 7096 32be 9e5a 7ebe 3a02 6dbe
000003b0: d25c f63d ebc1 dbbc e596 b4bd 62c7 8a3e
000003c0: 0808 8fbd 31e1 4e3d 3b06 21be 10b7 88be
000003d0: 16b5 6ebd 92f6 62be cfb3 29be f7fc 8a3e
000003e0: f1b1 44bd e8e5 533e 7425 88be c761 60be
000003f0: cda7 af3d e3c4 813c 61c2 60ba 5056 c63e

sequential/dense/MatMul_bias f4 [16]
-0.25220317 -0.73692447 0.29026043 -0.0007127827 0.44257697 0.18534945 2.4058542 -0.60345906
2.2303398 -1.0402315 -0.89996684 0.6573884 1.3558551 -0.93679935 2.1350372 -0.40499976
00000000: c620 81be 15a7 3cbf 049d 943e 0ada 3aba
00000010: 7399 e23e 3fcc 3d3e 84f9 1940 4b7c 1abf
00000020: e3bd 0e40 4e26 85bf 3a64 66bf 9b4a 283f
00000030: a98c ad3f 15d2 6fbf 73a4 0840 215c cfbe

sequential/dense_1/MatMul/ReadVariableOp/transpose f4 [4, 16]
-0.4345046 0.101315 0.19445047 -0.09910232 0.28746605 -0.09175431 0.18973514 -0.4773233
0.30799565 -0.33992127 0.13569732 0.2946998 0.32062602 0.37339193 0.161126 -0.5269325
0.050939705 0.11101559 0.13872926 -0.15664095 0.30655643 -0.03657678 0.13413131 0.25289294
0.3109958 0.040813148 0.14922176 -0.1051593 0.25016126 0.41732484 0.20583215 0.14946316
0.16330555 -0.095315345 0.07515568 -0.097801104 -0.3036195 -0.06121471 -0.10497497 0.16949953
0.14166248 0.26076314 0.171194 -0.34525272 0.20794421 0.28880858 0.060935855 0.029651769
0.20081805 0.020929078 0.15587634 0.022903545 -0.23561162 0.00011161972 0.1759737 0.0372818
0.3347782 -0.15157999 0.08615387 -0.21093374 0.27517873 0.33247134 0.18335725 -0.1587592
00000000: 6377 debe 3d7e cf3d 061e 473e 28f6 cabd
00000010: c02e 933e afe9 bbbd ee49 423e b863 f4be
00000020: 9bb1 9d3e 290a aebe 3df4 0a3e e4e2 963e
00000030: 1829 a43e 3a2d bf3e 37fe 243e 0ce5 06bf
00000040: 27a6 503d 245c e33d 0b0f 0e3e 7c66 20be
00000050: f7f4 9c3e 89d1 15bd b859 093e 2f7b 813e
00000060: d73a 9f3e b02b 273d 97cd 183e c25d d7bd
00000070: 2315 803e 9aab d53e aac5 523e df0c 193e
00000080: 9239 273e b134 c3bd 39eb 993d f24b c8bd
00000090: 0474 9bbe 47bc 7abd 1efd d6bd 4991 2d3e
000000a0: f80f 113e bf82 853e 7b4d 2f3e f7c4 b0be
000000b0: 54ef 543e b8de 933e e097 793d 44e8 f23c
000000c0: 3fa3 4d3e 7573 ab3c 0c9e 1f3e 37a0 bb3c
000000d0: 2c44 71be 6215 ea38 7332 343e cdb4 183d
000000e0: 0c68 ab3e c937 1bbe 7171 b03d 04ff 57be
000000f0: 3ae4 8c3e af39 aa3e 01c2 3b3e c691 22be

sequential/dense_1/MatMul_bias f4 [4]
-3.9409747 -4.8867908 2.0527194 0.9403849
00000000: ee38 7cc0 9760 9cc0 c15f 0340 11bd 703f
